Handin_Exercises/HI5_Learning/python/RL_Highway/models/pre-trained/last_model.tar (torch, 890095 bytes, 18 tensors)

layers.0.weight f4 [256, 25]
000000 9d c2 0f 3e fe 01 98 bd de 07 46 3e 26 8f 33 be
       0.14039083 -0.07422255 0.19338939 -0.17535076
000010 48 85 09 3f 35 c3 2a be 8d 54 64 be 5c fc bd bd
       0.53718996 -0.16676028 -0.22297879 -0.09276649
000020 bc dd a0 3e 77 4c 92 bf e9 87 91 bd cd e8 78 bf
       0.3141917 -1.1429585 -0.07106001 -0.97230226
000030 a9 a3 75 be fd f7 8e 3f cc f9 90 be 01 70 59 3e
       -0.23988213 1.116943 -0.2831558 0.21234132
000040 f3 09 9a bd c6 aa 0d bf 69 3f 8a 3f f3 32 27 bf
       -0.07521429 -0.55338705 1.0800601 -0.6531212
000050 fc 31 aa 3d e0 9e ae be d8 65 2e 3f 57 8a 27 3f
       0.08310315 -0.34105587 0.6812415 0.65445465
000060 2c 1f 42 bf 44 35 81 3c 27 44 0a 3e e4 cf a9 bc
       -0.75828815 0.01577247 0.1350256 -0.020729013
000070 95 3d 1e be 52 b0 2c be b5 7c 12 3d d5 68 77 3f
       -0.15453179 -0.16864136 0.03576346 0.96644336
000080 83 23 2e 3d 10 cf 33 3e e7 d1 a7 3e c9 02 01 3e
       0.042514335 0.17559457 0.3277733 0.12598719
000090 8a d3 65 3e 79 38 aa 3d a3 73 d8 3e 97 ea 46 bd
       0.22443977 0.083115526 0.42275724 -0.048563566
0000a0 ab 15 3a 3e 02 50 39 bf 72 4c 82 3c bc 47 04 3f
       0.18172328 -0.7238771 0.015905593 0.5167196
0000b0 61 a3 94 3d 70 1c a2 bd 5b 65 9b bf a5 16 ed be
       0.072577246 -0.0791558 -1.2140306 -0.4630634
0000c0 bc c3 ed 3e d9 64 ad be 84 5a 6f 3d 4a bc f5 bd
       0.46438396 -0.33866003 0.05843593 -0.11998804
0000d0 a7 7d 82 bd 46 e3 77 bd cd b2 68 bd 4d 76 83 be
       -0.063716225 -0.06051948 -0.056811143 -0.25676194
0000e0 9f 56 95 be 71 d9 09 bd 19 77 5e be 5a 68 c0 bd
       -0.2916765 -0.033654634 -0.2172512 -0.093949035
0000f0 d7 6f 2c ba e5 b2 f7 bd 14 a2 a3 bd 58 94 14 be
       -0.0006577945 -0.12094668 -0.07989898 -0.14509714
000100 12 99 79 bd 0a c8 93 3c a9 ea 17 bd 81 52 01 3e
       -0.060936995 0.018039722 -0.037089024 0.12629129
000110 51 b3 61 bd bf 21 b4 3d d9 9c 9b 3a f2 d2 85 3c
       -0.05510265 0.08795499 0.0011872306 0.016335938
000120 84 c5 75 bd 17 73 a6 3e 0d c1 cb 3d 7a f3 6d 3d
       -0.06000282 0.32509682 0.09948931 0.058093525
000130 34 7e 26 bb 29 17 3c bf 35 cc 32 3e c5 b9 6a be
       -0.0025404813 -0.7347284 0.17460711 -0.22922428
000140 d5 46 dd bd f6 7b e2 bc a8 be 53 be 4a 57 7b bd
       -0.10804526 -0.027647 -0.20678198 -0.061362542
000150 04 0d c0 3e e9 27 26 3e 93 52 28 bf c5 70 41 be
       0.3750993 0.16226162 -0.65751 -0.18890674
000160 64 5a 04 bf 38 6c 46 bf ef 63 a9 3c 32 90 00 bf
       -0.51700425 -0.7750888 0.020677535 -0.50220025
000170 f3 eb e4 be d3 c7 08 bf 1f 83 b1 3c 89 91 02 be
       -0.44711265 -0.5342991 0.021668969 -0.1275083
000180 de 4a cf 3e 46 ac 57 3e 44 1a 8c be 41 ea ec 3d
       0.40486807 0.21061811 -0.2736379 0.11568118
000190 7a 1d c4 bd cd 6e 9b 3b 68 02 00 be 07 94 83 bd
       -0.09575935 0.004743433 -0.12500918 -0.06424718
0001a0 bd ac f1 3d 4d 64 4c be 28 d1 00 be 53 f2 43 be
       0.11800525 -0.19960137 -0.12579787 -0.19135408
0001b0 58 d8 22 3e 6a d1 80 3d 1a 0f c2 3c a7 e7 98 bd
       0.15902841 0.062899426 0.023688842 -0.07466059
0001c0 4f 39 20 3e 93 88 4c 3e 57 af d3 bd 47 82 f1 bd
       0.15646861 0.19973974 -0.10336178 -0.117924266
0001d0 38 94 0a be 00 d5 c7 bb 1a 43 19 bc 23 0d b8 3d
       -0.13533103 -0.0060983896 -0.009354377 0.08986881
0001e0 67 50 20 bb fd 22 aa bd bf e3 17 3e da 73 af 3d
       -0.0024461986 -0.08307455 0.14832972 0.08567019
0001f0 5a bb 34 3e 4d 5d 64 bd ac 52 e5 3d b5 17 eb bc
       0.17649594 -0.05575304 0.11197409 -0.028697828
000200 e8 45 61 3d 2d 6b 16 be d0 5a c4 3d 80 ab e3 be
       0.05499831 -0.14689322 0.095876336 -0.44466782
000210 82 aa c9 3d 09 a2 aa be 34 64 95 3f 6b 5a c8 bd
       0.09846975 -0.33326748 1.1671205 -0.09782871
000220 96 f9 f2 be c6 60 84 bc 66 d6 1e bf c7 ee 61 bb
       -0.47456044 -0.016159426 -0.62045896 -0.0034474598
000230 4e c2 6d be 43 ff 00 3f 71 3f e9 be 7b 78 ab 3e
       -0.23218653 0.503895 -0.45556214 0.33490357
000240 a9 72 a8 3e 2d 87 4d bd 58 fe c6 3e 77 b7 c3 3d
       0.3289998 -0.05017774 0.38865924 0.095564775
000250 8d 24 94 3d 10 7a c7 3d 2a 38 b1 bd 2a 3e e3 bd
       0.07233534 0.097400784 -0.086532906 -0.11095841
000260 b0 27 b8 3d 33 ee fb 3c 9d 70 9e bd d3 b3 f3 bd
       0.08991945 0.03075323 -0.07736323 -0.11899533
000270 4f 6f 3e 3e 6b 8c 45 be 7a ca b7 bd e0 19 be 3d
       0.18597148 -0.19291846 -0.08974166 0.09282279
000280 27 06 b3 3d b7 3e a6 3d f3 a8 10 bd 85 bb 05 3e
       0.08741408 0.08117431 -0.035317373 0.13059814
000290 d0 0c b6 3d 1d c8 39 be 85 52 2e 3e c3 07 8a 3d
       0.088891625 -0.18142743 0.17023666 0.06739762
0002a0 da 3e 8d 3c 98 5d 3b 3e 5a ba 2f 3d 73 07 b3 bc
       0.017241884 0.18297422 0.042902328 -0.021854138
0002b0 37 34 06 3e 0d e9 aa 3d c7 bc bf bd 43 c6 1b be
       0.13105856 0.08345232 -0.09362178 -0.1521235
0002c0 9a 49 44 3c 33 97 ce ba 6f 8f 2e be 27 8e 64 3d
       0.011980439 -0.0015761614 -0.17046903 0.05579963
0002d0 9d 0e 47 be b3 05 1d 3e 23 9d ee 3d 05 03 3f be
       -0.19439168 0.15334205 0.11651065 -0.18653496
0002e0 c0 8b ef 3d cd cc 20 bd 87 1b 3c be ed 03 a6 3d
       0.11696577 -0.039257813 -0.18369876 0.081062175
0002f0 57 f7 db bd c7 94 d6 3d da bc 21 3e ca 6e 90 3d
       -0.10740536 0.10477596 0.15794697 0.07052381
000300 b3 f5 32 bd 3a 5a a3 3d dd 11 e6 bd 4a e7 38 3e
       -0.04369135 0.07976194 -0.11233876 0.1805698
000310 37 bf ff 3d 80 4f 93 bd 80 c8 27 3c 73 9b ce 3c
       0.12487643 -0.07192898 0.010240674 0.025220608
000320 cd 1b 2c 3c 67 75 09 be cd 7c 23 be 0d 84 2f 3d
       0.010504675 -0.13423692 -0.15965576 0.042850543
000330 33 70 98 3d e7 fc 45 bd 58 27 00 3e 3d cb f2 bd
       0.07443275 -0.04833689 0.12515008 -0.11855171
000340 48 43 2f be 33 e3 aa 3a 23 2a 3e be 67 e3 fe bd
       -0.1711551 0.0013037681 -0.18570761 -0.12445717
000350 68 c0 3f be 95 6d 19 3e cd 66 3b bc 42 47 3e be
       -0.18725741 0.14983208 -0.011438084 -0.1858187
000360 0a 59 da 3d ed 49 a5 bd 33 ed 1a 3b 33 60 15 bc
       0.10661514 -0.08070741 0.0023639917 -0.009117174
000370 13 14 31 be bd 8e 10 3e 7a 37 17 bd 47 35 35 be
       -0.17292814 0.1411695 -0.03691814 -0.17696105
000380 d5 7b 15 3e ae 9b 24 3e d7 41 8f 3d 4f 22 2a c0
       0.1459802 0.16075012 0.0699498 -2.658344
000390 30 a6 6d 3e 21 95 da be 5f 0d 2c be 0b 7c 0b bf
       0.23207927 -0.426919 -0.16801976 -0.5448615
0003a0 2f 04 ea 3d 96 fa 36 3e de 0d a5 3e 45 af 96 bc
       0.11426579 0.17869028 0.32237142 -0.018394122
0003b0 17 7c 7f 3e 7f 22 0c bb 8a 8c e2 3d e2 fe 05 3f
       0.2494968 -0.0021382866 0.11061962 0.52342045
0003c0 f9 29 4b 3d e0 7c e2 bf c2 da 9d bf 26 18 3a bf
       0.049600575 -1.7694359 -1.2332385 -0.726931
0003d0 a9 64 24 3e 8b 4b ec 3d ee 99 9e 3e 8f 15 e7 3d
       0.16054024 0.11537846 0.30976814 0.11283409
0003e0 44 65 42 3e 1d 42 f2 3e 1f aa aa bc 9c d5 3f 3e
       0.18983942 0.47316065 -0.020833073 0.1873383
0003f0 e7 6f 68 be 69 9d 8c be 0c 09 94 be 75 1c c9 b9
       -0.22698937 -0.27463844 -0.28913152 -0.0003835891

layers.0.bias f4 [256]
000000 22 dc ca 3d 65 66 7d 3e db aa 87 3d d5 a4 5a bd
       0.09905268 0.24746092 0.06624385 -0.053379852
000010 88 2e 0b be 23 3e a5 ba aa 75 12 be 47 f6 2b be
       -0.13591969 -0.0012607019 -0.14302698 -0.16793166
000020 30 bb d0 bd 5d b6 64 be 85 57 81 bd b7 c3 87 bd
       -0.10191953 -0.22335191 -0.06315521 -0.066291265
000030 48 2c 90 3d a5 2d 03 be ba e1 49 be a6 92 44 be
       0.07039696 -0.12810381 -0.19715014 -0.19196567
000040 8e 6d 07 3e 9a b6 47 3d 8b c2 50 be d9 2a e9 3d
       0.13225386 0.048758127 -0.20386712 0.11385126
000050 e4 d8 f6 3d 8e 0f ba bd b1 64 28 be 00 14 ab 3b
       0.12053087 -0.09084998 -0.1644466 0.00522089
000060 14 95 01 be 3a 0f d4 3d 47 28 32 be fe 43 65 be
       -0.12654525 0.10354467 -0.17398177 -0.22389218
000070 f5 5f a2 3d 2a 8b 4a be 5d 35 cc 3d ed 65 36 be
       0.079284586 -0.1977965 0.09971116 -0.17812319
000080 aa 0f 18 be 22 c4 45 3e 4d c7 ce bc e0 2d ac bd
       -0.14849725 0.193131 -0.025241518 -0.084071875
000090 16 44 48 3d 73 94 a0 3d e2 2d a2 3d 3d 84 87 bd
       0.048893057 0.078408144 0.07918908 -0.06617019
0000a0 a7 dc 0a bd 14 f4 06 bd fe 83 db 3d dc 6a 48 be
       -0.033901837 -0.032947615 0.10718535 -0.19572014
0000b0 9a 8c 0d be 0a bd 90 bd 80 4e ba 3d fa 28 24 3e
       -0.13823166 -0.07067306 0.09097004 0.16031256
0000c0 05 28 4f be 27 df 9a bc 71 24 39 be 3b 94 2a bd
       -0.2023011 -0.018905235 -0.18080308 -0.04164527
0000d0 10 bf 8a 3c 0d 1b 1d bc ba 10 09 be fe 0a 12 be
       0.016936809 -0.009588969 -0.13385287 -0.14262006
0000e0 d5 b8 20 bc 38 c7 10 be 4d 25 57 bd 3d ff b4 3d
       -0.009809692 -0.14138496 -0.052525807 0.08837745
0000f0 17 da c6 3d 8d 54 b6 bc 99 4f 04 be f3 b7 d0 bd
       0.09709566 -0.022257114 -0.12920989 -0.101913355
000100 4c 09 3c bd 86 a0 71 bd b1 e4 60 be 0d d0 7a 3d
       -0.045907304 -0.058990978 -0.21962239 0.06123357
000110 47 d5 1e be 32 6f ec 3d bd b6 0e be 49 0c 76 3d
       -0.15511046 0.11544646 -0.13936897 0.06007031
000120 d4 4b 5a bc af b7 44 3d 2a 6d 28 be 1f 5f 9a bd
       -0.013323743 0.048026737 -0.16447893 -0.07537674
000130 92 39 03 3d 8a 9e c7 3b af f5 35 be 75 c7 25 be
       0.032037325 0.0060918974 -0.17769502 -0.16189368
000140 f8 59 4d 3e 1a e1 16 bd ed 4a 67 bd 5a b1 e1 3c
       0.20053852 -0.036835767 -0.05646794 0.027550388
000150 c8 ea 1a 3d d0 14 a5 bd 50 2a 09 3e 17 49 e6 bd
       0.03782156 -0.0806061 0.13395047 -0.112444095
000160 3f 16 f0 bd 47 6b a0 bd cb 3c e5 3c 70 7b 28 be
       -0.11722993 -0.078329615 0.02798309 -0.16453338
000170 e5 7b 0b 3e 36 65 0c 3e a9 e8 02 3e 9a 05 d5 bd
       0.13621481 0.13710484 0.12784065 -0.10401459
000180 8c 0f eb 3c ba e9 1f 3e f3 8c 37 bc 93 a3 dc 3c
       0.028693937 0.15616503 -0.0112030385 0.026933467
000190 ca e0 f7 bd d9 3b af 3d 7c 78 22 bd 73 81 0a 3e
       -0.12103422 0.08556337 -0.039665684 0.13525943
0001a0 6c d6 aa bd 5a 01 76 3d 17 34 40 3a a7 fe aa bc
       -0.08341679 0.060059883 0.0007331981 -0.02087338
0001b0 36 ca 1d 3e 48 3c 19 bb d3 28 bf bb 4f 86 be 3d
       0.15409169 -0.0023381878 -0.005833724 0.09302961
0001c0 ad 2a 31 be d9 c4 0a 3d 1e 3f df bc 00 4e c9 bd
       -0.17301436 0.033879135 -0.027251776 -0.098293304
0001d0 41 90 e1 bc 20 fd 0e bd 80 87 2d bd 77 90 b4 3d
       -0.027534606 -0.034909368 -0.04236555 0.08816617
0001e0 bc 9c aa bd f3 e5 e6 3c 9f 8f 1a 38 62 e3 1b be
       -0.08330676 0.02818582 3.685022e-05 -0.15223458
0001f0 13 9d c9 3d 6f 9f ac 3c 35 16 02 be 60 9f d1 bd
       0.09844413 0.021072118 -0.12703784 -0.102354765
000200 a5 6a 38 be cf cc 98 3d e2 d7 ab 3d 24 72 22 3e
       -0.18009432 0.07460939 0.08390786 0.15863854
000210 ef fd 0f be d8 92 bf bd b4 0e 17 3d ad e2 16 be
       -0.14061712 -0.0935418 0.036879256 -0.14734907
000220 ef de 94 bc 1c b4 2f 3e 0d 71 c6 3d a7 76 c7 3d
       -0.01817271 0.1715855 0.096895315 0.09739428
000230 15 ac 36 be 67 3f 25 be 53 54 cb 3d 48 c9 f4 bd
       -0.17839082 -0.16137467 0.09928193 -0.11952454
000240 44 ac 50 be 02 b4 83 3d 61 b5 ff 3d e5 50 c9 3d
       -0.20378214 0.06430818 0.12485767 0.098298825
000250 a7 9c 81 3d a3 ea 27 3e ff 83 12 be a4 a5 54 be
       0.06328707 0.163981 -0.14308165 -0.20766312
000260 e7 23 31 3e 03 8a f6 3d 5a 67 fa bd c1 a4 97 bc
       0.17298852 0.120380424 -0.12226744 -0.018511178
000270 6a 66 08 be 19 a2 b1 3d 5c fe 3e 3e 1e aa c7 bd
       -0.13320318 0.08673496 0.18651718 -0.09749244
000280 6c 46 d4 3d 30 39 16 3e c7 ed 4d 3d 77 f3 0f be
       0.103649944 0.14670253 0.05027559 -0.14057718
000290 f9 d8 7e 3d 87 9e 3f 3d 39 6c 2f 3e 63 49 25 be
       0.06221864 0.046782043 0.17131127 -0.16141276
0002a0 4b 0a d2 bc da 17 80 3d 8a 1a 90 bd b0 e0 cb 3d
       -0.025639674 0.06254549 -0.07036312 0.09954965
0002b0 24 d7 38 3d d0 17 41 be 01 e6 d7 bb ca 31 09 3e
       0.04512705 -0.1885674 -0.006588698 0.133979
0002c0 09 89 18 3d 7f 75 60 be 7f 76 25 be bd c1 af bd
       0.037240062 -0.21919821 -0.16158484 -0.085818745
0002d0 78 c8 86 3d 07 6f 54 3c 71 bd 94 bd 90 a6 2a be
       0.06581205 0.012965924 -0.072626956 -0.16665101
0002e0 e0 57 4b be e3 51 3c 3d b4 ea 54 be 1f ae c3 bc
       -0.1985774 0.04597653 -0.20792657 -0.023886738
0002f0 55 8c b5 bd b9 c5 10 be ba a2 54 be 5a bd 0b be
       -0.08864657 -0.14137925 -0.207652 -0.1364645
000300 a6 83 cc 3d 08 24 eb 3a 4b 00 ec bc d0 c0 83 bd
       0.099860474 0.0017939815 -0.028808733 -0.064332604
000310 0d 66 e1 bd 1a ea 0e bd c0 57 c2 bd 4a e6 d0 3c
       -0.11005793 -0.034891225 -0.09489393 0.025500435
000320 f5 58 0e be 70 fc 3b 3e 52 ff 8d bd 4a cb 71 bd
       -0.13901122 0.18358016 -0.06933464 -0.059031762
000330 19 be c5 3d 56 8e 5a 3d db 0e a3 3d cd 00 26 bc
       0.09655399 0.0533584 0.07961818 -0.010132027
000340 b8 ad 00 be 08 19 d4 bb ad 03 2f 3e e1 eb 01 bb
       -0.12566268 -0.0064727105 0.17091246 -0.0019824433
000350 a3 64 98 bc fc f4 6f 3d 42 39 34 3e 61 63 c0 3d
       -0.018602675 0.058583245 0.17599967 0.09393955
000360 ae 9b 37 3e dd 75 fe 3d f0 8f 3a be 9b 48 46 3c
       0.17930481 0.124248244 -0.1821897 0.012102271
000370 8d 78 10 3d ba 8e 88 bd 8a 1b 79 3d e1 bd e3 3c
       0.035271216 -0.06667848 0.06081728 0.027800502
000380 30 ac 9d 3a 75 14 8c 3d ca 48 97 3c 81 12 22 bd
       0.0012029465 0.06839839 0.018467326 -0.039568428
000390 d7 15 4d 3d 73 9c 2f bc 14 b8 81 bd cd 51 e8 3c
       0.050069656 -0.010718453 -0.06333938 0.028359318
0003a0 63 54 63 be ce f7 1c 3d 37 17 09 bc 16 77 c6 3d
       -0.2220016 0.038322262 -0.008367351 0.096906826
0003b0 f0 e1 10 3d ea 96 3a be a3 7a f8 bd 27 99 65 3d
       0.03537172 -0.18221632 -0.12132766 0.05605426
0003c0 8a df 83 3d 2e b9 41 be 7d 90 11 3e 09 04 9b bc
       0.06439121 -0.18918297 0.14215274 -0.018922823
0003d0 1d bd 3d 3e 67 ac 2c be f9 8d d6 3d fa e4 e4 3d
       0.18529172 -0.16862641 0.10476298 0.11176486
0003e0 aa 61 0f be 9f d7 9d 3d e2 9d 2f bd 89 3f b4 3c
       -0.140021 0.07707142 -0.04287518 0.022002952
0003f0 64 89 6d be 17 f2 9a bd 03 46 21 be 01 f4 2a 3e
       -0.23196942 -0.07565706 -0.15749364 0.16694643

layers.2.weight f4 [256, 256]
000000 ba 98 79 bb d6 ab 34 bd e9 a2 0e bc 55 80 8f bd
       -0.0038085417 -0.044109188 -0.008705833 -0.07006899
000010 4e a2 58 3d be 72 82 bb 0c 89 0e bd f2 c1 59 3d
       0.05288916 -0.0039809635 -0.034798667 0.053163476
000020 ae 28 60 3d 32 01 62 bd 80 c1 3a bb ad ce 3c bd
       0.054726295 -0.05517692 -0.0028496683 -0.04609554
000030 e6 f0 2a bd 83 6a 97 bb 54 1f 4c bd 6a a4 16 bd
       -0.041733645 -0.0046208515 -0.049834564 -0.03677789
000040 76 be 9c ba 7c a9 55 bd b7 b1 a0 bc 09 3f 10 3d
       -0.0011958617 -0.052163586 -0.019615991 0.035216365
000050 59 cd 8e bd f1 75 a2 bd 00 fa 34 ba 18 34 3c bd
       -0.06972761 -0.07932652 -0.0006903708 -0.045948118
000060 8c 2d af bb d4 37 fa bc 2c ab a7 bc d9 9b f5 3b
       -0.005346006 -0.030544199 -0.020467363 0.007495385
000070 59 6e 66 bd f2 23 37 bd a0 00 2e 3d 74 68 63 3d
       -0.05625758 -0.044712014 0.042481065 0.055519536
000080 85 91 8b 3b a7 a4 a2 3c 80 21 a8 ba a8 2a 68 3c
       0.0042592906 0.019853903 -0.0012827367 0.014170326
000090 34 2f 84 bd 31 a2 3a bd c4 87 43 3c 1e ab 15 3d
       -0.06454316 -0.045564834 0.0119342245 0.036540143
0000a0 16 e2 3f 3d 11 7d 90 bd 13 da 71 bd 89 e3 12 bd
       0.04684647 -0.070551045 -0.059045862 -0.035861526
0000b0 36 b4 68 bd 5c 2c 72 bd d0 ea 9d 3b 3e ea c3 3c
       -0.056812488 -0.059124336 0.0048192516 0.023915406
0000c0 84 e6 6e 3d ac b0 41 bd a1 d8 06 bb 79 44 5c bd
       0.058325306 -0.047287628 -0.0020575898 -0.053776238
0000d0 73 8c 6b bd 78 7c 9b bd e8 e9 96 bc 7e af 86 bc
       -0.05750699 -0.075921 -0.018422082 -0.016441103
0000e0 1e 14 db bc cc 27 10 bd 80 35 8e 3a d0 94 f9 3b
       -0.026742991 -0.035194203 0.0010849684 0.007616617
0000f0 69 32 f4 3b 8e fd 30 3d 90 4c 79 3d c1 7d 8e bb
       0.0074522984 0.04321056 0.06086403 -0.004348487
000100 bd 15 b2 bd 83 9f 45 bd 44 c5 d6 bb a0 5d bf bb
       -0.086955525 -0.048247825 -0.0065542776 -0.0058400184
000110 ae 39 5c 3d 85 6e 85 bc 1d 24 2a 3c 59 26 b6 3c
       0.053765945 -0.016288051 0.010384587 0.022235082
000120 d5 49 90 bd b2 4a 45 ba f8 ac d8 3c 3e b3 7c bb
       -0.07045332 -0.0007526084 0.026449665 -0.0038558985
000130 33 37 3f bd 60 d0 65 3d 63 65 9d bc 72 c8 b3 bd
       -0.0466835 0.056106925 -0.019213384 -0.08778466
000140 46 8a 74 bd 89 96 aa 3b 1e 2b 57 3d b8 b3 4e bc
       -0.05970218 0.0052059335 0.052531354 -0.0126160905
000150 30 2d 11 bd 40 3a cc bc 2c 9f 29 3d 39 fe 6b 3b
       -0.035443485 -0.02493012 0.041411564 0.0036009683
000160 49 68 51 bc 41 1d 04 bd 60 e8 aa bd a4 58 dd bc
       -0.012781211 -0.03225446 -0.08345103 -0.027019806
000170 8e 10 2a bd 98 0d 52 3c c7 40 2d 3d 7c cb d3 3c
       -0.041519694 0.012820624 0.042298105 0.025853865
000180 e0 a3 b6 bd a1 b8 c6 bc 50 44 b2 3b f8 6d 96 bb
       -0.089179754 -0.02425796 0.0054402724 -0.004590746
000190 90 67 40 3c 39 9f 3b bc 6c 0a 15 3d 7c c9 e8 bc
       0.011743441 -0.011451536 0.036386892 -0.028416388
0001a0 49 10 39 bc cc c4 17 3d 90 a2 a7 3c 25 7b 8d bd
       -0.011295387 0.037052915 0.020463258 -0.069082536
0001b0 0e 67 68 bd 99 52 8e bd d9 d7 9d bc 52 ed 1d 3d
       -0.056738906 -0.06949348 -0.019267963 0.038556404
0001c0 90 ef 2f bc c8 91 2b 3d 8f 5a 1e bd 00 c6 50 3c
       -0.0107382685 0.041887075 -0.038660582 0.012742519
0001d0 75 c5 0f 3d 20 f0 ae 3b 24 b6 3c 3d 84 5c e5 bc
       0.03510042 0.0053386837 0.04607214 -0.027998216
0001e0 68 55 bf bc 30 14 77 bd 5c d4 b5 bd ca c2 23 bd
       -0.023356155 -0.060321987 -0.08878395 -0.039980687
0001f0 88 4a c4 3c 90 c7 09 bd a5 2a 9c bc 0e 5e 6d 3d
       0.02396132 -0.033637583 -0.019063303 0.057951026
000200 a6 96 2f 3d 78 59 8c 3c 84 d3 77 bd 93 a3 64 bc
       0.04286828 0.017132506 -0.06050445 -0.013955015
000210 a0 6d 42 bd 8d 7d 27 bd b6 53 ae 3c be 98 03 bd
       -0.047467828 -0.04089122 0.02128015 -0.03212809
000220 23 0e 0a bd 0d d4 af 39 4a ed 50 3d 58 df 9b bd
       -0.033704888 0.0003353659 0.051007546 -0.07610959
000230 bb 91 4c bc 6d 31 1b bd 8d 9a 04 3c 10 56 f5 bc
       -0.012485917 -0.037888933 0.008093488 -0.029948264
000240 71 38 04 3d 19 c3 09 3d 40 c7 67 bd 59 01 4e bd
       0.03228039 0.033633325 -0.056586504 -0.050294254
000250 4e 26 08 3d 7d 4b 09 3b 6b 59 46 3d 27 e0 f5 3c
       0.033239655 0.0020949536 0.04842512 0.03001411
000260 27 50 91 bd 49 3a c5 bb c8 0b f3 3c ba ab 3d bd
       -0.07095366 -0.006018911 0.029668704 -0.04630635
000270 a8 ab 35 bc 60 e5 d5 3c 4c ae 64 bd aa 87 ef bc
       -0.011088289 0.026110351 -0.055830285 -0.029239494
000280 cc 95 e3 3c e7 d5 3b 3d cc 4a b5 bc 2c 9c 4d 3c
       0.02778139 0.04585829 -0.022130392 0.012549441
000290 f0 08 fb bb 64 9c f9 3c 41 01 96 3c 16 02 13 bc
       -0.0076609775 0.03047008 0.018311145 -0.008972665
0002a0 74 8b 55 bd ba 37 71 bd c3 86 99 bd d4 ea 61 bd
       -0.052134946 -0.058891036 -0.07496407 -0.05515559
0002b0 16 ea c2 bc 54 ab 99 bd af 2a f5 39 9c 6f bd 3c
       -0.023793261 -0.07503381 0.00046761843 0.023124509
0002c0 bd 79 bb 3c bf 52 1d 3d 06 63 bb bd e0 c3 f4 bb
       0.022885198 0.03840899 -0.091497466 -0.007469639
0002d0 40 9c 51 3b 80 6d a3 bd 10 18 70 bd b0 57 c2 3b
       0.0031984001 -0.0797987 -0.058616698 0.0059308633
0002e0 d4 58 f9 3c 35 27 77 3c 49 e9 4c bd 05 b8 0a bd
       0.030437864 0.015085031 -0.050027166 -0.0338669
0002f0 70 62 0a bc a0 82 4a b7 9c 2e 14 3c 48 96 4e 3d
       -0.008446321 -1.2070552e-05 0.009044316 0.050436288
000300 fc f3 81 bd f1 ff 86 3c cf ad 85 bd 38 cd fd bc
       -0.063453645 0.016479464 -0.06527292 -0.030981645
000310 8c e9 e0 3c 60 3e 98 bd 40 07 5e bb 1b 10 47 3d
       0.027455114 -0.07433772 -0.0033878833 0.048599344
000320 80 f8 02 3a fc 76 05 bd bb 06 f4 bc 1c e3 6c 3d
       0.0004996136 -0.032584175 -0.029788366 0.057833776
000330 65 72 6b bc 4a 69 79 bd 98 23 56 3c 36 58 33 3d
       -0.0143705355 -0.060891427 0.01307001 0.043785296
000340 e8 1d d3 bc ba d7 6e bd 65 7a 03 3d 8d fa 37 3a
       -0.025771096 -0.0583112 0.032099146 0.0007018231
000350 9e a5 51 3c 3d c6 14 3d 3c 52 f9 3c 5e 2b 46 bd
       0.012795834 0.036321867 0.03043472 -0.048381202
000360 c8 ef 82 bc 60 9d bc bc 25 3a 8c 3c 96 79 88 bd
       -0.015983477 -0.023024261 0.01711757 -0.06663816
000370 06 99 88 bd 28 d9 e7 bc 20 76 1a 3b ee 41 22 3b
       -0.06669812 -0.02830179 0.0023568943 0.0024758535
000380 20 d8 ff 3b d4 18 9a bd 9a 8e b4 3c fd d7 40 bc
       0.0078077465 -0.07524267 0.022040654 -0.011770246
000390 eb ba 1b bd 76 31 c5 3c ed 56 12 3a 9a d2 0b bd
       -0.038020056 0.024071436 0.0005582411 -0.034136392
0003a0 ff 6e 8c bc e0 de ff bc dd 65 b5 bc 1f 78 8b bd
       -0.01714277 -0.031234205 -0.022143299 -0.06810021
0003b0 30 25 1c 3c 32 43 68 bd f0 8a 87 bc f0 c1 af bb
       0.009530351 -0.056704707 -0.016545743 -0.0053636953
0003c0 c0 12 17 3b dd 20 13 bc fc 94 8a 3c 60 c1 e0 bb
       0.0023051947 -0.008980003 0.016916744 -0.0068589896
0003d0 7a 4d 5e bd 06 b6 55 bd 7c 9b 0e bc e3 e3 34 bd
       -0.054273106 -0.052175544 -0.008704063 -0.044162642
0003e0 12 9b 3c 3d 71 68 e6 3c e4 45 39 bd 3d da 2d bd
       0.046046324 0.028125973 -0.04523267 -0.042444456
0003f0 07 15 1f bd b0 95 a3 bc dc ff 6a bd 00 d2 55 bc
       -0.038838413 -0.019968837 -0.057372913 -0.013050556

layers.2.bias f4 [256]
000000 60 41 e0 bb c9 16 9c bd 3d 98 75 3d 19 ea 8d 3d
       -0.006843731 -0.076215334 0.05995964 0.06929416
000010 fb 37 a7 3d a2 dc 77 3e 79 a1 48 bd 4f 82 1b 3e
       0.08164974 0.24205258 -0.048982117 0.15186428
000020 7c 6b 43 3e 84 7b 07 3f 46 9c 99 3c b8 bf f5 bd
       0.19083971 0.52922845 0.018751275 -0.11999458
000030 0c e6 db 3e 13 2f 89 3e a8 f2 96 3d 95 5e e6 3e
       0.4294895 0.26793727 0.07370502 0.44994035
000040 df 14 54 3e 61 ec 0f bc 22 9c 05 3e c6 60 c3 3d
       0.20711087 -0.0087843845 0.13047841 0.095399424
000050 0d 2e 7a bc c5 5e df 3e a6 3e 95 bc f2 db b1 3d
       -0.015269768 0.4362699 -0.01821835 0.08684529
000060 bd 7b 97 bd 1a cb 17 3e 6e 78 8f 3d 57 c3 dd 3e
       -0.07396648 0.14823571 0.07005392 0.43313095
000070 ce 30 5d 3d fa 7f 3f bd b8 e7 19 3e 30 3a 8e bd
       0.054001622 -0.046752907 0.150298 -0.06944692
000080 73 e5 64 3e 08 20 b2 3d bb d3 4e bd 1f 33 d4 bd
       0.22353153 0.08697516 -0.05049489 -0.10361313
000090 fa 0a ae 3e cd 7d e0 3d 9d fd 64 bb 48 b9 c4 bd
       0.3399275 0.109614946 -0.0034941204 -0.09605652
0000a0 00 a0 5b bd 8c 98 b9 bd b5 52 b2 3e 6f d9 81 be
       -0.053619385 -0.09062299 0.34828725 -0.253612
0000b0 3e c0 67 3e 0e 63 a9 3e e6 39 62 bd 1d 22 a3 bd
       0.22631928 0.33083385 -0.055230998 -0.07965491
0000c0 e0 03 9d bd bf cd f8 bd f5 b1 89 bd 72 9b 10 bc
       -0.07666755 -0.12148618 -0.06723396 -0.008826124
0000d0 40 a4 87 3e bb 62 15 3c 03 66 7d 3e 5c 37 e6 bc
       0.264925 0.009117777 0.24745946 -0.02810257
0000e0 9e e4 ec be 0d d3 70 3d 94 d6 ab bd 4a 06 cb 3d
       -0.4626817 0.058795024 -0.08390537 0.09913309
0000f0 32 5a b7 3e 41 e6 a7 3e d4 84 b3 bb 48 97 1c 3f
       0.35811 0.32792857 -0.005478481 0.61168337
000100 eb d1 22 3e 54 d0 96 3e 70 b0 dd bc 25 25 79 ba
       0.1590039 0.29455817 -0.027061671 -0.0009504131
000110 df e4 9b 3e 85 7c 02 bd f7 23 74 3c ce 50 cf bd
       0.30448052 -0.031857032 0.014901153 -0.10122834
000120 f2 f4 8d bd 0d 46 67 3e a8 48 12 3e 89 36 a0 3d
       -0.06931485 0.22585316 0.14285529 0.07822902
000130 68 6f 37 be 05 ee 52 3e ba 66 28 bc 46 73 0b 3e
       -0.17913592 0.2059861 -0.010278398 0.13618192
000140 3f bf cf 3e 64 be 8e bd 1b 3d 3f 3e d9 7b fc 3b
       0.40575597 -0.06969908 0.18675654 0.0077051935
000150 df c4 92 bc 68 01 55 bd 9c 20 81 3d 3d 7c 44 3e
       -0.017916141 -0.052003294 0.06305048 0.19188018
000160 3d dc 1c bd 8c 1d 31 3e ae 30 ad bd 2e 55 01 3d
       -0.038295973 0.17296427 -0.084565505 0.031575374
000170 76 0a 29 3c 2b 72 7d bd ec 51 b9 be ed 1f 23 bc
       0.0103174355 -0.061876457 -0.36195314 -0.009956342
000180 3e 28 67 bc d8 a7 0a 3c 7e c1 3d bd 58 47 77 3e
       -0.014108716 0.008462869 -0.046327107 0.24148309
000190 a7 c1 b5 bd 2c 9e 9b bd 29 09 12 bc d6 6d 5e 3e
       -0.08874827 -0.07598528 -0.008913317 0.21721587
0001a0 5a 53 0b 3f 22 80 99 bd 80 41 17 3f 56 73 77 3e
       0.5442406 -0.074951425 0.5908432 0.24165091
0001b0 15 54 40 bc 77 24 31 3e 41 1e 20 3f cb 16 5a 3e
       -0.011738797 0.17299066 0.62546164 0.21297757
0001c0 fd 8c 06 3d 3a ac f5 bc 08 ab 75 bc 56 e7 96 bc
       0.0328493 -0.02998935 -0.01499439 -0.018420856
0001d0 da 47 0e bc e6 9a f4 bc c0 c0 7a 3d 1f b7 cc 3c
       -0.008684123 -0.029859018 0.061218977 0.024989663
0001e0 d2 ed ab ba 3b 2a 39 3e ba 44 95 3e 2d a7 80 3d
       -0.0013117141 0.18082516 0.29153997 0.06281886
0001f0 1a c1 6d 3b 58 b3 32 3d d1 83 f3 3e 85 c5 1c 3e
       0.0036278428 0.043628067 0.47561505 0.15309723
000200 df 1f e1 3e a1 a0 e0 3c 71 a7 bd 3d 36 0b 84 3e
       0.43969628 0.027420344 0.092604525 0.25789803
000210 12 3a 44 3e 89 89 f7 3d 1c 3e 66 3e d0 54 65 bd
       0.19162777 0.120867796 0.2248463 -0.055989087
000220 c2 34 95 bd 63 1d 6b bd c2 8a e9 3e 77 93 6c 3e
       -0.072854534 -0.057401072 0.45613676 0.23103128
000230 ac 6e 37 bd 41 14 99 3e 8f 8a 1f 3e ba ca 72 bd
       -0.04478328 0.29898265 0.155802 -0.059275366
000240 7a 95 ed bb 66 74 23 bd 1f 6f 71 3e 97 6c df 3e
       -0.007250485 -0.039905928 0.23577546 0.43637535
000250 3d b1 b1 3e 03 d0 c6 3d d6 fc 0f 3f 6b cf 01 3d
       0.34705535 0.09707644 0.5624517 0.03169195
000260 75 23 00 bd 81 93 cd bb 78 0f af bd 66 ac 81 3e
       -0.031283814 -0.0062736874 -0.08547872 0.25326842
000270 b4 77 60 3c c2 69 7e 3e e6 ff aa 3e e6 ff 93 3e
       0.013700414 0.24845031 0.3339836 0.28906173
000280 1c 6e 9c bd e1 13 f0 bd 0e 74 ad 3d 9e 9b 6f 3e
       -0.07638189 -0.117225416 0.08469401 0.23399207
000290 e7 19 be 3c 48 ce c2 bc 57 cb 1c 3c 67 17 fa bc
       0.02320571 -0.023780003 0.009569964 -0.030528737
0002a0 be c8 04 be bc eb 07 3e 43 06 a3 3e 50 b1 0f 3c
       -0.12967202 0.1327352 0.31840715 0.008770302
0002b0 82 1b 8f 3c e8 44 39 bd d8 cb fe 3d 27 ee da 3e
       0.017469171 -0.04523173 0.12441224 0.4275982
0002c0 17 a2 25 bd 02 18 69 3c 6f 2a 82 3c 6d 71 04 bd
       -0.040437784 0.014226915 0.015889375 -0.032334734
0002d0 b2 8c c1 3d 9a d4 f9 bd 12 61 46 bd 3b 50 ea b9
       0.094506636 -0.12198754 -0.048432417 -0.00044691734
0002e0 b5 03 00 bd bf 34 96 bc 73 59 21 bd 5b dc 85 3e
       -0.031253535 -0.018335698 -0.039391946 0.2614468
0002f0 c5 5e 65 bd 9d 2a 90 3e b0 d7 7a bd 7c 94 16 bd
       -0.055998582 0.2815751 -0.061240852 -0.0367627
000300 8e 75 b0 bd 74 07 9b bd b9 36 47 3c 1a 56 4d 3e
       -0.08616172 -0.07569781 0.012159043 0.20052376
000310 49 22 fb 3e 25 2a 90 3d a7 78 01 3e c4 8f a4 3b
       0.49049595 0.070392884 0.12643681 0.005022021
000320 77 07 64 bd 99 df 20 bd 19 8e 6e bd f8 78 69 3e
       -0.05567118 -0.03927574 -0.058240984 0.22800052
000330 42 47 46 bd e4 aa a2 bd 3c 93 83 3d f1 30 f0 3c
       -0.0484078 -0.07942751 0.06424567 0.029320212
000340 d2 39 c2 3d d0 aa 83 bd 46 87 ba bb 4b dc 7d bd
       0.094836846 -0.06429064 -0.0056923954 -0.061977666
000350 99 e4 76 bd 82 0a 0a 3f 57 b7 dc 3e 16 1f 09 3c
       -0.0602766 0.53922284 0.43108627 0.008369228
000360 45 ac e5 bc 90 a7 81 bd 14 9a 28 bd 6f 1c 02 3e
       -0.028036246 -0.06330788 -0.041162565 0.12706159
000370 54 3b a7 3e 95 8c 81 3e b3 a8 8b bd 28 ce 63 3e
       0.3266245 0.25302568 -0.06819286 0.22246611
000380 79 fd 8a bb e2 37 d9 bc ca ae ce 3b aa b0 e6 3e
       -0.004241642 -0.026515905 0.0063074576 0.4505666
000390 58 fd 5a be 78 26 f3 3e 00 1e 8e 3e 10 44 a8 bd
       -0.21385705 0.47490287 0.27757263 -0.08216107
0003a0 d9 97 82 bc a9 f1 0b 3f 22 14 41 3d c6 2b 49 bd
       -0.015941547 0.5466562 0.04713834 -0.04911401
0003b0 6c 00 12 bd d4 be 05 3f fc d7 1b bd c5 39 b9 bb
       -0.035644934 0.52244306 -0.038047776 -0.0056526386
0003c0 16 81 58 3e ef 6d 0e 3f e8 38 b6 3b e0 b0 86 bd
       0.21142992 0.55636495 0.005560983 -0.06576705
0003d0 70 c9 c6 3d 20 ec 39 3e 60 34 3e bd 6c 35 44 3b
       0.0970639 0.18156481 -0.046436667 0.0029939068
0003e0 a0 e6 00 bd 09 12 f8 3d 7d 21 be bc 27 ae b3 3e
       -0.03146994 0.12112815 -0.023209328 0.35093805
0003f0 ef 6d 99 bd 35 2b 0c bd 76 ce 54 3e 48 ec 01 bc
       -0.07491671 -0.034220893 0.20781884 -0.007929869

layers.4.weight f4 [5, 256]
000000 38 8a 29 3c 00 eb 11 3b 22 25 0d 3f 5d c4 20 be
       0.010347895 0.0022265315 0.55134785 -0.15699907
000010 a0 ae 25 bf 4a c5 83 3d 24 c3 30 3d 9f 1a 23 3e
       -0.6471958 0.06434114 0.04315485 0.15928124
000020 49 bd 04 3d c7 91 d0 3d c1 42 75 3b a2 3d 89 3c
       0.03240708 0.10184055 0.0037423822 0.016753022
000030 ed 59 53 bd cf a3 d6 bf d6 50 48 3c 11 26 af 3d
       -0.05159943 -1.676874 0.012226304 0.085521825
000040 63 7b 1e c0 17 d4 4d 3f 0c 03 10 c0 5c 5f 0e 3f
       -2.476281 0.8040175 -2.250186 0.55614257
000050 f8 e8 41 3c 32 c8 c5 3c a4 78 f4 3c 8a 66 1b bf
       0.011835329 0.024143312 0.029842682 -0.6070334
000060 94 1b 49 3d 96 c4 6c 3e 38 18 d1 bc 00 73 ae 3d
       0.049098566 0.23121867 -0.025524244 0.08518028
000070 40 c8 84 3e 30 89 2d 3d 4d 77 a4 3d bc 8a a7 bb
       0.2593403 0.04236716 0.08030567 -0.005112974
000080 ca 71 f4 3d 4f 29 a6 3e 77 63 1f 3e 67 c4 5f 3d
       0.11935766 0.3245339 0.15565287 0.054630663
000090 18 a2 2f c0 5a a9 4f be 70 37 0f 3c f0 13 7b bc
       -2.7442684 -0.20279446 0.008741245 -0.015324578
0000a0 b0 59 95 bb 41 a8 ff 3e 99 61 83 be 0b 77 6f be
       -0.0045578107 0.49933055 -0.256604 -0.23385255
0000b0 e0 27 aa 3e a7 d5 30 bd 2c 91 61 bd 32 5c 4a bd
       0.33233547 -0.043172505 -0.055070087 -0.04940433
0000c0 a8 c5 97 3c 6d df b1 3b e8 4b ad bc f8 08 af 3c
       0.018526867 0.0054282458 -0.021154359 0.021366581
0000d0 1f 49 93 3e 31 b7 76 3d 99 ef 81 3d 5c 17 fb 3c
       0.28766724 0.0602333 0.06344528 0.030650787
0000e0 a2 5a 39 3f 56 db 8b bc 9f 3f 60 3c c2 99 ab 3e
       0.7240392 -0.017072361 0.013687043 0.33515745
0000f0 3a 86 52 bb 08 34 db bf 98 f4 ed bc 08 c6 5d 3e
       -0.0032123462 -1.7125254 -0.029047295 0.21657574
000100 66 c0 05 3e 60 d9 8b 3d 26 82 34 bd 5c ba 0f 3d
       0.13061675 0.0682857 -0.04406943 0.035089836
000110 de 82 08 3e 9c 0b 9e bc d4 7a 6d 3d b0 d5 58 3c
       0.13331172 -0.019292645 0.057978466 0.013234541
000120 ac 12 b4 bb ec e9 17 3d d0 d3 3b bf f2 5a f3 be
       -0.00549539 0.03708832 -0.73370075 -0.47530323
000130 f5 50 09 3e 14 88 a9 bc 6e 07 6a bb ba 1e 48 bd
       0.13409789 -0.02069477 -0.0035709995 -0.048857428
000140 32 a6 d0 3d a3 c1 9d be b5 f4 f1 bf 99 cb e5 3c
       0.10187949 -0.30811796 -1.8902804 0.028051184
000150 50 e6 5e bd 2c a6 12 3d 04 2b 14 3d b7 cf bd 3e
       -0.054418862 0.035803005 0.036173835 0.37072536
000160 ec 9e 6d 3d 03 fb 17 3e c8 80 5a 3f 8c f2 5a bd
       0.058012888 0.14841847 0.85352755 -0.053453967
000170 cd ea 37 3d c0 34 b8 3c 65 55 de bd 00 da 68 b9
       0.044901658 0.02248609 -0.108561315 -0.00022206455
000180 80 b9 d9 bc 66 03 ac ba 04 7b f2 bc 01 97 7b be
       -0.026577711 -0.0013123571 -0.029599674 -0.24569322
000190 58 0d 30 3c cc ed 52 be cd 80 cf bb 51 f5 d3 3c
       0.010745369 -0.20598525 -0.006332493 0.025873812
0001a0 8a 0c 13 3e ba 57 78 bd 74 ba fd bd 90 67 10 3e
       0.14360252 -0.060630538 -0.12389079 0.14102006
0001b0 d0 62 4d bd c6 71 00 bd 25 d1 94 3e 68 0e fd bf
       -0.050143063 -0.031358503 0.29065815 -1.9770021
0001c0 21 cc 02 bd 5c 83 9c bc be ac 90 bf a8 59 8e 3c
       -0.031932954 -0.019105606 -1.1302717 0.017376736
0001d0 e8 5c c2 bc 6b de 02 bd 5d 39 2b be e7 87 61 3d
       -0.023725942 -0.031950396 -0.16721101 0.055061247
0001e0 26 31 3d bd 89 bb c6 bf 04 4b 23 3d 8c 15 62 3e
       -0.04618945 -1.5525981 0.039866462 0.22078532
0001f0 22 a5 86 bc 9f 3a 2a be 5d 70 42 3d b4 a7 dd 3d
       -0.016436163 -0.16623925 0.04747044 0.108230025
000200 41 19 8a 3d 85 dd 0e c0 1e 9c 83 3e 97 23 10 3e
       0.06743098 -2.2322705 0.25705045 0.14076076
000210 26 c5 2f bd 3e c1 34 3e 63 9a de bf 30 a8 a5 bc
       -0.042912625 0.17651841 -1.7390865 -0.0202218
000220 80 5f ec bc 4c 30 0d 3d 5a c9 0e 3e 81 ea 10 3e
       -0.028854132 0.034469888 0.13943997 0.14151956
000230 d6 f5 0e bd d7 2c 0a c0 34 db e5 3e 40 c9 47 bd
       -0.034902416 -2.1589868 0.448938 -0.04877591
000240 a0 ed 8c bc ca c8 58 bd ae 3c 0b 3e ef b2 28 3e
       -0.017203152 -0.052925862 0.13597366 0.16474508
000250 69 6f 46 3c 9d 4a 82 3e c7 6e 0a 3e da f5 14 3d
       0.012111523 0.2544755 0.1351882 0.036367275
000260 50 d2 4a 3c 97 78 11 bd da b2 26 bd 7d 51 23 be
       0.012379244 -0.035515394 -0.04069791 -0.15949054
000270 40 9d c6 3c 9c 00 bb bd 9c 19 f1 bb 79 00 3c c0
       0.024244905 -0.091309756 -0.007357789 -2.9375288
000280 96 67 18 bd b9 7e 6c 3e ec de 1b 3f fb 05 0a c0
       -0.037208162 0.23095216 0.60887027 -2.156615
000290 ef 76 e2 be 0c 53 1a 3d 0c 7e 3e bd 84 de fd bc
       -0.44231364 0.037676856 -0.046506926 -0.030989893
0002a0 50 a9 a3 bd 29 f9 46 3f 74 54 20 c0 94 22 7d bd
       -0.07991278 0.7772394 -2.5051546 -0.061800554
0002b0 88 e1 3d bc 80 f9 f0 bb 61 fc 65 be 1d a4 1c 3b
       -0.011589415 -0.0073539615 -0.22459556 0.002390153
0002c0 8e 34 09 bd a4 6c 5d bd c0 c4 c6 3c c0 27 27 bd
       -0.033497386 -0.054058686 0.02426374 -0.040809393
0002d0 6c f6 a4 3d 56 49 0b 3e 60 39 ad bc ba cb 41 3d
       0.08054814 0.13602194 -0.021145523 0.04731343
0002e0 d9 74 68 bb c0 fc 3e bd 04 7a 93 bc 96 fc 04 3e
       -0.0035470037 -0.04662776 -0.018002518 0.12986979
0002f0 2c 9e b4 bc 4e 74 a4 3e 30 55 69 3d ca b6 a2 bc
       -0.022048078 0.32119983 0.056966007 -0.019862551
000300 00 6f 7f 3b c4 30 92 bc 70 56 73 bc ef cd 17 c0
       0.0038976073 -0.017845519 -0.014852151 -2.3719442
000310 72 0f 35 3e e7 1a 4e 3e 8b 2d 0d 3d 50 27 01 3d
       0.17681673 0.2012745 0.03446726 0.031531632
000320 2c d9 66 3d 00 e7 8e bc 84 6d 91 bc 92 af 66 3d
       0.056359455 -0.017444134 -0.017752416 0.05631978
000330 20 bb 1f 3d a0 0a be bc 3f cc 1e 3f 30 e2 19 3d
       0.038996816 -0.023198426 0.62030405 0.037569225
000340 85 b5 81 3c 5f 04 a9 3e a0 2d 87 3e b0 06 ef 3c
       0.015833626 0.33011147 0.26401997 0.029177994
000350 84 1f 34 bd ae dd 00 3e 29 fa 25 3e a2 9a 5d 3d
       -0.04397537 0.12584564 0.1620871 0.054102547
000360 84 cc fa bb 55 3a 06 bb ba e8 22 bd 86 81 92 3d
       -0.0076537747 -0.0020481546 -0.039772727 0.07153611
000370 1d 8d a8 bd da 37 c7 be fc 1a 5f 3d 9f 48 d4 3d
       -0.0823004 -0.389098 0.054469094 0.10365414
000380 04 7c 36 bd 67 3d c1 bc 70 5c 23 3d a5 68 3c 3e
       -0.044551864 -0.02358885 0.039883077 0.18399294
000390 bc 78 d4 be de af 04 3e 0c c8 18 3e b0 68 be bc
       -0.41498363 0.12957713 0.14920062 -0.023243278
0003a0 20 14 5a 3b 8e 8c ff 3d f0 ca c1 be 2e 0f 5f 3d
       0.0033276156 0.124779806 -0.37850142 0.054457836
0003b0 94 30 cc 3c af f6 38 3e 84 3b af bc 9b 8c 21 bd
       0.024925508 0.18062852 -0.021390684 -0.039440732
0003c0 31 2b fc bf 35 30 2e 3e c5 e6 ed 3c 49 db f9 3c
       -1.9700681 0.17010577 0.029040704 0.030500071
0003d0 0d d9 88 3d 37 01 0b c0 48 89 46 3d f6 18 d5 be
       0.06682024 -2.1719491 0.048470765 -0.41620606
0003e0 f5 b3 49 3d 4e e5 8b 3d b0 56 a8 bc b3 ac 09 be
       0.049243886 0.06830846 -0.020549148 -0.13444786
0003f0 e2 f3 12 3f 30 a3 69 bd d5 b6 ee 3b d4 b3 79 3d
       0.57403386 -0.057040393 0.007284979 0.060962513

layers.4.bias f4 [5]
000000 ae 77 b7 3e c5 54 b4 3e f0 41 01 3f 30 36 ec 3e
       0.35833496 0.35220924 0.5049124 0.46135092
000010 93 ca af 3e
       0.3433424

exp_avg f4 [256, 25]
000000 57 7a 45 3a 57 7a 45 3a 92 c8 12 3a 62 3b 40 39
       0.00075331837 0.00075331837 0.00055993453 0.00018332669
000010 70 69 10 b8 57 7a 45 3a 3a 8a c6 b8 cf 84 8c b9
       -3.443047e-05 0.00075331837 -9.4671224e-05 -0.0002680183
000020 6a f3 2e 38 1a a9 17 38 57 7a 45 3a ac 38 a4 b9
       4.171153e-05 3.6158694e-05 0.00075331837 -0.0003132274
000030 e1 74 63 39 a8 8e 0f 38 cf 11 10 38 57 7a 45 3a
       0.00021691948 3.4226716e-05 3.434886e-05 0.00075331837
000040 63 db a9 b8 54 3a 51 b9 70 2c e4 37 8b ca 10 38
       -8.099412e-05 -0.00019953522 2.720041e-05 3.452091e-05
000050 57 7a 45 3a 1a d4 b2 39 85 08 b9 b9 6a 86 32 39
       0.00075331837 0.00034108834 -0.00035292297 0.00017025476
000060 61 c5 14 38 b4 96 fe bb b4 96 fe bb f7 38 a0 bb
       3.5469773e-05 -0.00776943 -0.00776943 -0.0048896032
000070 a7 7d 82 bb 36 eb 90 39 b4 96 fe bb ca 68 02 ba
       -0.003982264 0.00027641066 -0.00776943 -0.0004974721
000080 91 fe 17 bb 1a 30 73 3a 94 59 91 b9 b4 96 fe bb
       -0.0023192505 0.0009276882 -0.00027723296 -0.00776943
000090 d3 61 0b bb c6 bd 84 bb 73 d4 b6 3a 32 6d 91 b9
       -0.0021268025 -0.004050943 0.0013948813 -0.00027737912
0000a0 b4 96 fe bb 2c f2 a9 ba ff c0 0d 3c d1 04 b0 3a
       -0.00776943 -0.001296585 0.008651971 0.001342917
0000b0 b5 38 92 b9 b4 96 fe bb 70 b0 4f bb 6f 16 ac 3b
       -0.0002788954 -0.00776943 -0.0031690858 0.0052516977
0000c0 b1 39 df 3a 3c 86 90 b9 04 00 00 00 04 00 00 00
       0.0017030743 -0.00027565833 6e-45 6e-45
0000d0 04 00 00 80 04 00 00 00 04 00 00 00 04 00 00 00
       -6e-45 6e-45 6e-45 6e-45
0000e0 04 00 00 80 04 00 00 00 04 00 00 80 04 00 00 80
       -6e-45 6e-45 -6e-45 -6e-45
0000f0 04 00 00 00 04 00 00 80 04 00 00 00 04 00 00 80
       6e-45 -6e-45 6e-45 -6e-45
000100 04 00 00 80 04 00 00 00 04 00 00 00 04 00 00 00
       -6e-45 6e-45 6e-45 6e-45
000110 04 00 00 80 04 00 00 80 04 00 00 00 04 00 00 00
       -6e-45 -6e-45 6e-45 6e-45
000120 04 00 00 00 04 00 00 80 04 00 00 80 c0 af 25 3c
       6e-45 -6e-45 -6e-45 0.010112703
000130 c0 af 25 3c ba 0d 16 3b b6 7a aa 3b 68 56 22 39
       0.010112703 0.0022896365 0.0052026166 0.00015481713
000140 c0 af 25 3c 05 fa dc 37 e5 80 c5 ba ab 68 ce ba
       0.010112703 2.6342468e-05 -0.0015068321 -0.0015747746
000150 87 5d 15 b9 c0 af 25 3c d2 f9 09 3a 26 14 d6 3b
       -0.00014244589 0.010112703 0.00052633614 0.0065331636
000160 62 7e f6 ba dd 2a 36 b9 c0 af 25 3c 1a 5f a0 3a
       -0.0018805976 -0.0001737284 0.010112703 0.0012235374
000170 ce 36 a8 b7 79 33 e9 ba c3 92 1f b9 c0 af 25 3c
       -2.0052681e-05 -0.0017791829 -0.00015218095 0.010112703
000180 bb 76 2e 3b 27 da 8c 3b 65 9a 06 bb 02 b0 18 b9
       0.0026621062 0.0042984667 -0.0020538804 -0.00014561418
000190 00 00 00 00 00 00 00 00 00 00 00 00 00 00 00 00
       0.0 0.0 0.0 0.0
0001a0 00 00 00 00 00 00 00 00 00 00 00 00 00 00 00 00
       0.0 0.0 0.0 0.0
0001b0 00 00 00 00 00 00 00 00 00 00 00 00 00 00 00 00
       0.0 0.0 0.0 0.0
0001c0 00 00 00 00 00 00 00 00 00 00 00 00 00 00 00 00
       0.0 0.0 0.0 0.0
0001d0 00 00 00 00 00 00 00 00 00 00 00 00 00 00 00 00
       0.0 0.0 0.0 0.0
0001e0 00 00 00 00 00 00 00 00 00 00 00 00 00 00 00 00
       0.0 0.0 0.0 0.0
0001f0 00 00 00 00 53 7e 63 3c 53 7e 63 3c 01 d4 00 3c
       0.0 0.0138850985 0.0138850985 0.007863046
000200 ee 35 de 3b b0 3b e0 38 53 7e 63 3c 14 d5 11 39
       0.0067813313 0.0001069227 0.0138850985 0.00013907655
000210 09 0d b8 bb 6d 8a f1 ba 3c 97 a9 b8 53 7e 63 3c
       -0.0056167883 -0.0018428095 -8.0867176e-05 0.0138850985
000220 72 4f 2e 3b fb 8b 6c 3b 13 64 0a bb 4f 68 fa b8
       0.0026597646 0.0036094177 -0.0021116778 -0.00011940358
000230 53 7e 63 3c 74 9e 8c 3b ef 5f ab bb 9b f8 0b bb
       0.0138850985 0.00429135 -0.005229942 -0.0021357897
000240 45 b2 d7 b8 53 7e 63 3c 79 03 e5 3b 71 78 89 bb
       -0.00010285204 0.0138850985 0.0069889394 -0.004195266
000250 06 7f 18 bb 30 6f b0 b8 00 00 00 00 00 00 00 00
       -0.0023269071 -8.413044e-05 0.0 0.0
000260 00 00 00 00 00 00 00 00 00 00 00 00 00 00 00 00
       0.0 0.0 0.0 0.0
000270 00 00 00 00 00 00 00 00 00 00 00 00 00 00 00 00
       0.0 0.0 0.0 0.0
000280 00 00 00 00 00 00 00 00 00 00 00 00 00 00 00 00
       0.0 0.0 0.0 0.0
000290 00 00 00 00 00 00 00 00 00 00 00 00 00 00 00 00
       0.0 0.0 0.0 0.0
0002a0 00 00 00 00 00 00 00 00 00 00 00 00 00 00 00 00
       0.0 0.0 0.0 0.0
0002b0 00 00 00 00 00 00 00 00 00 00 00 00 00 00 00 00
       0.0 0.0 0.0 0.0
0002c0 00 00 00 00 00 00 00 00 00 00 00 00 00 00 00 00
       0.0 0.0 0.0 0.0
0002d0 00 00 00 00 00 00 00 00 00 00 00 00 00 00 00 00
       0.0 0.0 0.0 0.0
0002e0 00 00 00 00 00 00 00 00 00 00 00 00 00 00 00 00
       0.0 0.0 0.0 0.0
0002f0 00 00 00 00 00 00 00 00 00 00 00 00 00 00 00 00
       0.0 0.0 0.0 0.0
000300 00 00 00 00 00 00 00 00 00 00 00 00 00 00 00 00
       0.0 0.0 0.0 0.0
000310 00 00 00 00 00 00 00 00 00 00 00 00 00 00 00 00
       0.0 0.0 0.0 0.0
000320 00 00 00 00 00 00 00 00 00 00 00 00 00 00 00 00
       0.0 0.0 0.0 0.0
000330 00 00 00 00 00 00 00 00 00 00 00 00 00 00 00 00
       0.0 0.0 0.0 0.0
000340 00 00 00 00 00 00 00 00 00 00 00 00 00 00 00 00
       0.0 0.0 0.0 0.0
000350 00 00 00 00 00 00 00 00 00 00 00 00 00 00 00 00
       0.0 0.0 0.0 0.0
000360 00 00 00 00 00 00 00 00 00 00 00 00 00 00 00 00
       0.0 0.0 0.0 0.0
000370 00 00 00 00 00 00 00 00 00 00 00 00 00 00 00 00
       0.0 0.0 0.0 0.0
000380 00 00 00 00 14 21 2b ba 14 21 2b ba 21 3a 87 b5
       0.0 -0.00065280613 -0.00065280613 -1.0075202e-06
000390 4e 28 6c ba 9a 43 2e 35 14 21 2b ba 69 e4 b7 37
       -0.00090086914 6.4918424e-07 -0.00065280613 2.1921662e-05
0003a0 aa 9c 5d b9 aa 53 27 3a 72 63 7a 35 14 21 2b ba
       -0.00021134564 0.00063830114 9.327697e-07 -0.00065280613
0003b0 da 9f e7 b9 4d 62 82 b9 00 1e 72 3a 8a 68 8c b4
       -0.00044178852 -0.00024868772 0.0009236038 -2.6153094e-07
0003c0 14 21 2b ba d8 4e 6f b8 71 fc f1 36 6e 40 2f 3a
       -0.00065280613 -5.705547e-05 7.2117477e-06 0.0006685321
0003d0 9a 43 2e b5 14 21 2b ba 91 ac 5d b9 37 d1 ab ba
       -6.4918424e-07 -0.00065280613 -0.00021140488 -0.0013108616
0003e0 a2 3d 54 3a d3 d1 1b b5 af 73 4e b8 af 73 4e b8
       0.0008096342 -5.8047334e-07 -4.9221966e-05 -4.9221966e-05
0003f0 ac 1f bd 39 55 78 b8 39 49 18 7d 39 af 73 4e b8
       0.00036072487 0.0003518487 0.00024137007 -4.9221966e-05

exp_avg_sq f4 [256, 25]
000000 31 b2 42 3b 31 b2 42 3b 38 6a af 3a ea 3f 16 3a
       0.002970826 0.002970826 0.0013383096 0.000573157
000010 bf 98 6b 35 31 b2 42 3b e1 a4 99 36 03 75 f1 39
       8.7766597e-07 0.002970826 4.5789498e-06 0.00046054283
000020 ab e1 13 38 7c 02 92 35 31 b2 42 3b 8c 25 8f 37
       3.52577e-05 1.0878571e-06 0.002970826 1.7064413e-05
000030 3a a3 0d 3a 0c bf 27 38 a0 86 35 35 31 b2 42 3b
       0.0005403046 3.999383e-05 6.762366e-07 0.002970826
000040 75 c2 d7 38 87 1d 56 3a 93 6e 0b 38 68 3f 6f 35
       0.00010288219 0.0008167852 3.3243163e-05 8.9126706e-07
000050 31 b2 42 3b 99 6e b0 39 b2 e3 7d 39 44 e7 1d 38
       0.002970826 0.00033651738 0.00024212783 3.76471e-05
000060 73 5b 3d 35 b4 cb a3 3b b4 cb a3 3b 79 0e c0 3a
       7.054106e-07 0.0049986485 0.0049986485 0.0014652751
000070 0a 1b 85 3a 2d 9d 25 36 b4 cb a3 3b ac af 62 37
       0.0010155153 2.4678404e-06 0.0049986485 1.35115515e-05
000080 50 a7 28 3a 0d 96 92 38 86 66 28 36 b4 cb a3 3b
       0.0006433623 6.989772e-05 2.5093627e-06 0.0049986485
000090 9e 42 3e 38 62 80 71 3a c6 4f 9a 38 4a bf 25 36
       4.5361572e-05 0.0009212551 7.358151e-05 2.469826e-06
0000a0 b4 cb a3 3b 18 78 cc 38 ec 29 53 3a 40 11 98 38
       0.0049986485 9.749847e-05 0.0008055258 7.251138e-05
0000b0 68 51 25 36 b4 cb a3 3b 9c a1 af 39 f4 cd 43 3a
       2.46343e-06 0.0049986485 0.0003349901 0.0007469349
0000c0 13 f0 9a 38 47 e4 25 36 f4 01 00 00 f4 01 00 00
       7.3880095e-05 2.471979e-06 7e-43 7e-43
0000d0 f4 01 00 00 f4 01 00 00 f4 01 00 00 f4 01 00 00
       7e-43 7e-43 7e-43 7e-43
0000e0 f4 01 00 00 f4 01 00 00 f4 01 00 00 f4 01 00 00
       7e-43 7e-43 7e-43 7e-43
0000f0 f4 01 00 00 f4 01 00 00 f4 01 00 00 f4 01 00 00
       7e-43 7e-43 7e-43 7e-43
000100 f4 01 00 00 f4 01 00 00 f4 01 00 00 f4 01 00 00
       7e-43 7e-43 7e-43 7e-43
000110 f4 01 00 00 f4 01 00 00 f4 01 00 00 f4 01 00 00
       7e-43 7e-43 7e-43 7e-43
000120 f4 01 00 00 f4 01 00 00 f4 01 00 00 15 a4 b1 3b
       7e-43 7e-43 7e-43 0.0054211714
000130 15 a4 b1 3b 6f 50 ba 3a d6 75 a8 3a 7b 39 62 36
       0.0054211714 0.0014214645 0.0012852501 3.3710082e-06
000140 15 a4 b1 3b f1 0d 87 37 14 e8 59 3a 6d fb e8 38
       0.0054211714 1.6099746e-05 0.00083124754 0.00011109454
000150 be 2d 7d 36 15 a4 b1 3b f3 94 94 38 b5 69 26 3a
       3.7726563e-06 0.0054211714 7.084934e-05 0.0006348149
000160 4e b8 02 39 06 76 5e 36 15 a4 b1 3b 49 16 9c 39
       0.00012466425 3.3149277e-06 0.0054211714 0.00029771242
000170 65 fa 75 3a 12 c1 02 39 29 88 6c 36 15 a4 b1 3b
       0.000938332 0.0001246969 3.5245996e-06 0.0054211714
000180 79 9d 7f 3a ab 47 26 3a ba c1 fa 38 f0 be 6b 36
       0.0009750943 0.0006343077 0.00011957013 3.512887e-06
000190 00 00 00 00 00 00 00 00 00 00 00 00 00 00 00 00
       0.0 0.0 0.0 0.0
0001a0 00 00 00 00 00 00 00 00 00 00 00 00 00 00 00 00
       0.0 0.0 0.0 0.0
0001b0 00 00 00 00 00 00 00 00 00 00 00 00 00 00 00 00
       0.0 0.0 0.0 0.0
0001c0 00 00 00 00 00 00 00 00 00 00 00 00 00 00 00 00
       0.0 0.0 0.0 0.0
0001d0 00 00 00 00 00 00 00 00 00 00 00 00 00 00 00 00
       0.0 0.0 0.0 0.0
0001e0 00 00 00 00 00 00 00 00 00 00 00 00 00 00 00 00
       0.0 0.0 0.0 0.0
0001f0 00 00 00 00 9f 78 70 3b 9f 78 70 3b aa 06 9a 3a
       0.0 0.003669299 0.003669299 0.0011751254
000200 84 52 60 3a e9 22 06 36 9f 78 70 3b 26 a9 72 37
       0.00085572177 1.9987876e-06 0.003669299 1.4463707e-05
000210 a9 6c 05 3a 57 fa 9f 38 35 74 0d 36 9f 78 70 3b
       0.0005089739 7.62834e-05 2.1078279e-06 0.003669299
000220 db 0c 8f 38 7d da 08 3a 9d e6 a9 38 4b 30 08 36
       6.821166e-05 0.00052205456 8.101503e-05 2.029369e-06
000230 9f 78 70 3b c8 11 6f 39 d2 13 23 3a 9b ee a6 38
       0.003669299 0.0002279944 0.000622091 7.9599406e-05
000240 4c 1d 0f 36 9f 78 70 3b e0 a2 18 3a 28 ef 0f 3a
       2.1325714e-06 0.003669299 0.000582261 0.0005490654
000250 7a 36 ad 38 2e 24 15 36 00 00 00 00 00 00 00 00
       8.25943e-05 2.222379e-06 0.0 0.0
000260 00 00 00 00 00 00 00 00 00 00 00 00 00 00 00 00
       0.0 0.0 0.0 0.0
000270 00 00 00 00 00 00 00 00 00 00 00 00 00 00 00 00
       0.0 0.0 0.0 0.0
000280 00 00 00 00 00 00 00 00 00 00 00 00 00 00 00 00
       0.0 0.0 0.0 0.0
000290 00 00 00 00 00 00 00 00 00 00 00 00 00 00 00 00
       0.0 0.0 0.0 0.0
0002a0 00 00 00 00 00 00 00 00 00 00 00 00 00 00 00 00
       0.0 0.0 0.0 0.0
0002b0 00 00 00 00 00 00 00 00 00 00 00 00 00 00 00 00
       0.0 0.0 0.0 0.0
0002c0 00 00 00 00 00 00 00 00 00 00 00 00 00 00 00 00
       0.0 0.0 0.0 0.0
0002d0 00 00 00 00 00 00 00 00 00 00 00 00 00 00 00 00
       0.0 0.0 0.0 0.0
0002e0 00 00 00 00 00 00 00 00 00 00 00 00 00 00 00 00
       0.0 0.0 0.0 0.0
0002f0 00 00 00 00 00 00 00 00 00 00 00 00 00 00 00 00
       0.0 0.0 0.0 0.0
000300 00 00 00 00 00 00 00 00 00 00 00 00 00 00 00 00
       0.0 0.0 0.0 0.0
000310 00 00 00 00 00 00 00 00 00 00 00 00 00 00 00 00
       0.0 0.0 0.0 0.0
000320 00 00 00 00 00 00 00 00 00 00 00 00 00 00 00 00
       0.0 0.0 0.0 0.0
000330 00 00 00 00 00 00 00 00 00 00 00 00 00 00 00 00
       0.0 0.0 0.0 0.0
000340 00 00 00 00 00 00 00 00 00 00 00 00 00 00 00 00
       0.0 0.0 0.0 0.0
000350 00 00 00 00 00 00 00 00 00 00 00 00 00 00 00 00
       0.0 0.0 0.0 0.0
000360 00 00 00 00 00 00 00 00 00 00 00 00 00 00 00 00
       0.0 0.0 0.0 0.0
000370 00 00 00 00 00 00 00 00 00 00 00 00 00 00 00 00
       0.0 0.0 0.0 0.0
000380 00 00 00 00 0a 66 0a 3c 0a 66 0a 3c 1e e1 98 37
       0.0 0.00844718 0.00844718 1.822464e-05
000390 01 3d 04 3b 40 af c1 36 0a 66 0a 3c b2 29 43 37
       0.0020177963 5.77225e-06 0.00844718 1.1632614e-05
0003a0 63 64 08 3b 07 58 3c 39 5b dc be 36 0a 66 0a 3c
       0.0020811788 0.0001796187 5.688094e-06 0.00844718
0003b0 2e 15 82 38 9a 40 0f 3b 86 d9 4f 39 36 4d c4 36
       6.202828e-05 0.0021858574 0.00019822092 5.8502437e-06
0003c0 0a 66 0a 3c ee 38 26 39 48 ca af 38 7f e3 45 39
       0.00844718 0.00015852202 8.382328e-05 0.00018872133
0003d0 2a 51 c2 36 0a 66 0a 3c 8c 0b 94 3a 80 fc 34 3b
       5.7910993e-06 0.00844718 0.0011294945 0.0027616322
0003e0 4c 7b 47 39 02 fa c1 36 5c be 05 3b 5c be 05 3b
       0.0001902405 5.780953e-06 0.0020407652 0.0020407652
0003f0 3f be 6f 3a 9e a8 c8 39 66 c8 83 35 5c be 05 3b
       0.00091454753 0.00038272602 9.818584e-07 0.0020407652
